.dart_tool/chrome-device/Default/optimization_guide_prediction_model_downloads/32addbd4-8eeb-4de9-9855-1c1a0f819e6c/model.tflite (tflite, 67216 bytes, 5 tensors)

dnn/hiddenlayer_1/bias/part_0 f4 [64]
0	0x3e0e8fd4	0.13922054
1	0x3dcf1b17	0.10112589
2	0xbd282d14	-0.041058615
3	0xbca24bb3	-0.019811487
4	0xbd1d0030	-0.038330257
5	0x3ddcbcf4	0.107782274
6	0xbce9866d	-0.028506482
7	0xbcecd4c3	-0.028910046
8	0x3d8dfd8e	0.06933127
9	0x3db9aa31	0.090656646
10	0xbcefd81e	-0.029277857
11	0xbb096ce6	-0.002096945
12	0xbd431755	-0.047629673
13	0x3d5b651a	0.053563215
14	0xbd50ad1d	-0.050946344
15	0xbc8e7453	-0.017389452
16	0xbd8e29ef	-0.06941592
17	0x3d2a288a	0.041542567
18	0xbc5ee3ba	-0.013604099
19	0x3d295a07	0.041345622
20	0x3d5ab8c6	0.05339887
21	0xbd982a15	-0.074299015
22	0xbd2aeca9	-0.041729603
23	0xbd80142e	-0.06253849
24	0xbd77edbe	-0.060529463
25	0x3d0b9429	0.034076843
26	0x3cdc809c	0.026916794
27	0x3da3e5f4	0.080028445
28	0x3c870d27	0.016485764
29	0x3d9f7df3	0.07787695
30	0x3d8591e0	0.06521964
31	0xbd617437	-0.05504247
32	0xbca4a22a	-0.020096857
33	0x3dd038d5	0.1016709
34	0x3bf6da27	0.00753333
35	0xbd0517e0	-0.032493472
36	0x3bb3fc00	0.005492687
37	0x3d70753a	0.058705546
38	0x3d65491c	0.055977926
39	0xbc8342c4	-0.016023047
40	0x3d7c336b	0.061572473
41	0xbd204f7b	-0.0391383
42	0xbd42a4b2	-0.047520347
43	0xbd6cd76f	-0.05782264
44	0xbd94f63e	-0.072735295
45	0xbd10d41c	-0.035358533
46	0xbd05faaf	-0.032709774
47	0x3dc98f1e	0.098417506
48	0xbd482621	-0.048864488
49	0x3d8a7113	0.067598484
50	0x3cf4c76f	0.029880254
51	0xbd17ed86	-0.037091754
52	0xbdebcf8b	-0.11514195
53	0xbce22a21	-0.02760798
54	0x3cd99865	0.026561925
55	0xbd8b31d3	-0.067966126
56	0x3be9549b	0.0071206815
57	0xbd866dad	-0.06563888
58	0x3da51810	0.0806123
59	0xbd1db3fe	-0.038501732
60	0xbccef804	-0.025264747
61	0x3ca9e88a	0.020740766
62	0xbd0e9eb4	-0.03481932
63	0xbcd660bf	-0.026169179

dnn/hiddenlayer_0/bias/part_0 f4 [128]
0	0xbc8c11a5	-0.017098257
1	0xbd2ce394	-0.042209223
2	0xbbbc0ef0	-0.0057390854
3	0xbdcc2966	-0.099688336
4	0xbc50efea	-0.0127525125
5	0x3d50bee2	0.05096329
6	0xbbf0b605	-0.007345917
7	0x3cf065c3	0.029345399
8	0x3d706352	0.05868847
9	0x3e200656	0.15627417
10	0xbcf38cb6	-0.029730182
11	0xbaafbc53	-0.0013407565
12	0x3d50b5eb	0.05095474
13	0xbd2d598b	-0.042321723
14	0xbd83eecb	-0.064420305
15	0xbd5c5d0f	-0.053799685
16	0xbd65bb43	-0.05608679
17	0xbbee5c9b	-0.007274223
18	0xbcb526d1	-0.022113236
19	0x3c9c70ce	0.019096758
20	0x3d1e689a	0.038673975
21	0xbd01d9ba	-0.03170178
22	0xbd58d0b4	-0.05293341
23	0x3c7435d9	0.014905416
24	0xbd610d2e	-0.05494421
25	0x3c756529	0.014977732
26	0xbdd22136	-0.10260241
27	0x3d239bbb	0.039943438
28	0xbd437e7d	-0.04772805
29	0x3cdaa191	0.026688369
30	0x3aa728cf	0.0012753251
31	0x3c19e9f9	0.009394162
32	0x3c6ea752	0.014566259
33	0xbe5bdf03	-0.21471791
34	0x3d2d8df6	0.042371713
35	0x3aba4a07	0.0014212736
36	0xbd361823	-0.044456612
37	0x3d4fc3b0	0.05072373
38	0x3ceaa534	0.028643228
39	0x3c1b65b0	0.009484693
40	0x3dccd5bb	0.10001703
41	0xbdcabbd4	-0.098991066
42	0xbcb5061b	-0.022097638
43	0x3d6d788a	0.057976283
44	0x3c3a17b9	0.011358195
45	0x3ddeffb5	0.10888616
46	0xbdf81dd9	-0.12115068
47	0x3cf60cd3	0.030035412
48	0x3d0b96c1	0.034079317
49	0x3cdfe801	0.027332308
50	0xbd7becbc	-0.061505064
51	0xbdb47059	-0.08810491
52	0xbbfce5b1	-0.007717811
53	0xbdc018e2	-0.09379746
54	0xbc82ee41	-0.015982749
55	0xbd94945e	-0.07254861
56	0x3d1bbcd7	0.03802189
57	0xbca2eed7	-0.019889278
58	0xbdb9f281	-0.09079457
59	0xbcc0430f	-0.023469476
60	0xbd602278	-0.054720372
61	0x3ac9e6c7	0.001540386
62	0x3dc8a6ca	0.097974375
63	0x3d194970	0.03742355
64	0xbe1868bb	-0.14883702
65	0xbcd03888	-0.025417581
66	0x3ce7e51c	0.02830749
67	0xbcf1c39c	-0.02951222
68	0xbc43782c	-0.011930507
69	0xbd2d7d4f	-0.04235583
70	0x3d2500cb	0.04028396
71	0x3ca41533	0.02002964
72	0xbcc4d57d	-0.02402758
73	0xbbda2676	-0.006657417
74	0x3db8b821	0.09019495
75	0x3cd5785b	0.026058367
76	0xbbf1113d	-0.0073567913
77	0x3d097314	0.033557013
78	0xbce46970	-0.027882308
79	0xbc688b9a	-0.01419344
80	0xbcc82423	-0.024431294
81	0xbcf91c08	-0.030408874
82	0x3b01c719	0.001980251
83	0x3bb060be	0.0053826263
84	0x3cdf0015	0.027221719
85	0xbd3cdc20	-0.046108365
86	0x3baf1d25	0.0053440505
87	0xbc3d7de6	-0.011565661
88	0xbcb5adf5	-0.022177676
89	0xbd2e7e2a	-0.04260079
90	0xbc2b895a	-0.010469759
91	0xbd9fe419	-0.07807178
92	0xbd9763f8	-0.073921144
93	0x3d722d87	0.05912545
94	0xbd134200	-0.035951614
95	0xbcc97606	-0.02459241
96	0xbc0a092c	-0.008425038
97	0x3d8bc20a	0.068241194
98	0x3c2f74db	0.010709013
99	0xbdb9f30b	-0.0907956
100	0x3b0bd4da	0.0021336586
101	0x3da4bbbc	0.0804362
102	0x3d70b5b8	0.05876705
103	0xbd3407df	-0.04395282
104	0x3cb2b4a2	0.021814648
105	0xbc0adf81	-0.008476139
106	0x3d9b9c90	0.07598221
107	0x3e0bde99	0.13659133
108	0xbc62f42f	-0.013852163
109	0x3ca631d9	0.020287441
110	0xbd332174	-0.043733075
111	0x3d68cc23	0.056835305
112	0x3d9547c1	0.072890766
113	0xbd88ca8a	-0.06679256
114	0xbcb7e536	-0.022448163
115	0x3d736f40	0.05943227
116	0x3d863abd	0.06554172
117	0xbd894358	-0.06702298
118	0x3bf8add5	0.007589082
119	0x3c9774f2	0.018488381
120	0xbc2248a9	-0.009905019
121	0xbc79b5d2	-0.015241103
122	0x3c8fbcc6	0.017546069
123	0xbce4ccdb	-0.027929714
124	0xbdbc51a5	-0.0919526
125	0x3c932d53	0.017965948
126	0xbdebc49f	-0.11512112
127	0x3cbe7a7c	0.023251764

dnn/hiddenlayer_0/MatMul f4 [128, 12]
0	0xbe271408	-0.16316235
1	0x3d3bd26d	0.045854975
2	0xbdfdede5	-0.123988904
3	0x3e2ddb29	0.16978134
4	0xbdc5cf1b	-0.09658643
5	0xbcc7db1e	-0.024396475
6	0x3e408401	0.18800355
7	0x3d9e1e4c	0.077206224
8	0xbd29a64a	-0.04141835
9	0x3d3c8408	0.046024352
10	0xbcbb29df	-0.022847114
11	0x3e1102fc	0.14161295
12	0xbdacd8a6	-0.0843976
13	0x3e0051fd	0.12531276
14	0xbdfb10d8	-0.12259072
15	0x3d8410de	0.0644853
16	0x3e27f5f7	0.16402422
17	0x3d6606ea	0.056158938
18	0x3da4a933	0.08040085
19	0xbd87c0f2	-0.06628598
20	0xbdb98778	-0.09059042
21	0xbe092475	-0.13392814
22	0xbd50de95	-0.05099352
23	0x3d6ff9b1	0.058587734
24	0x3d20339a	0.03911171
25	0x3baae032	0.0052147144
26	0xbe2c9241	-0.16852666
27	0x3e3f5155	0.1868337
28	0xbe11a0c2	-0.1422148
29	0xbd89e1f1	-0.06732548
30	0x3bcd6c77	0.0062690335
31	0xbe26de48	-0.16295731
32	0xbe447536	-0.19185337
33	0x3ddbdaee	0.10735117
34	0x3d455358	0.048175186
35	0xbe1bb64d	-0.15206261
36	0x3e1f1e50	0.15538907
37	0x3e253cb6	0.1613644
38	0x3d14810f	0.036255892
39	0xbe11d880	-0.14242744
40	0xbe0bee4e	-0.13665125
41	0x3e5d49ba	0.21610156
42	0xbdb2ab60	-0.087240934
43	0x3e504b22	0.20341161
44	0x3dec7c24	0.115471154
45	0x3de38f41	0.11111308
46	0xbe1c3252	-0.1525357
47	0x3dfb72f3	0.12277784
48	0xbc90296e	-0.01759788
49	0xbd63ec66	-0.05564537
50	0x3d4a82b0	0.04944104
51	0xbdfbd9ce	-0.12297402
52	0xbdd13856	-0.10215823
53	0xbe591e55	-0.21202977
54	0x3db2b584	0.087260276
55	0xbbd99ab8	-0.0066407584
56	0x3d342f9f	0.043990728
57	0x3e611ae9	0.21982922
58	0xbd4633cf	-0.048389252
59	0xbdc25eec	-0.09490761
60	0xbc1b8a8a	-0.0094934795
61	0x3e2538c3	0.16134934
62	0xbe39c1bd	-0.18140312
63	0xbe24997a	-0.16074172
64	0x3e5a9783	0.2134686
65	0xbd743ccc	-0.059628293
66	0x3ca54806	0.020175945
67	0xbe079b2e	-0.1324279
68	0x3dd7353d	0.10508201
69	0x3e537542	0.20650199
70	0x3e1beb36	0.15226445
71	0xbd7a7893	-0.061150145
72	0x3e31ee47	0.17376052
73	0x3da017a3	0.07817008
74	0xbdb2da74	-0.08733073
75	0x3cff64a7	0.031175924
76	0xbdff3488	-0.124611914
77	0xbe3037e3	-0.17208819
78	0xbdf1b4c8	-0.118020594
79	0xbdcdd485	-0.100503005
80	0xbe58a6fc	-0.2115745
81	0xbe13c858	-0.14431894
82	0xbd7df402	-0.062000282
83	0xbe0698d3	-0.13144235
84	0xbde4d422	-0.111732736
85	0x3d972c3e	0.073814854
86	0x3d750886	0.05982258
87	0xbe145bf2	-0.144882
88	0xbe378268	-0.1792084
89	0x3e64faa9	0.22361244
90	0x3e1534e8	0.14570963
91	0x3d7e82db	0.062136512
92	0xbd09c088	-0.033630878
93	0x3dc1628f	0.09442627
94	0x3e536bcd	0.20646591
95	0xbd745d4c	-0.059659287
96	0x3e0b2090	0.1358664
97	0x3deef02e	0.116669044
98	0xbdaf93b5	-0.08573095
99	0xbdde9158	-0.10867566
100	0x3db5b714	0.0887281
101	0xbcce1ed8	-0.025161192
102	0xbe702baa	-0.23454157
103	0x3e300ba0	0.17191935
104	0xbc3f274e	-0.011667086
105	0xbddba57e	-0.107249245
106	0x3e8a5408	0.27017236
107	0x3d9455e8	0.07242948
108	0xbe207cbf	-0.15672587
109	0x3df3b753	0.11900201
110	0x3d9d31c6	0.07675509
111	0xbdb58533	-0.08863296
112	0xbe0a5bdf	-0.13511609
113	0xbe1ecd44	-0.1550799
114	0x3e1215a6	0.1426607
115	0xbe5864d7	-0.21132217
116	0x3e16f40f	0.14741538
117	0x3e6b2afa	0.22965613
118	0xbddca58b	-0.10773762
119	0x3e8568c1	0.26056483
120	0xbddc7851	-0.10765136
121	0xbde86059	-0.11346502
122	0xbe218ad0	-0.15775609
123	0x3e489530	0.1958816
124	0xbdfe132a	-0.12405999
125	0x3e25330e	0.16132757
126	0xbe2902ce	-0.16504976
127	0xbb08ce82	-0.0020875041
128	0x3d02555f	0.031819697
129	0x3c87bd7b	0.016569844
130	0xbdb1158a	-0.086466864
131	0x3e060d58	0.13091028
132	0x3d6c554e	0.05769854
133	0xbe1ba559	-0.15199794
134	0xbe513f7e	-0.20434377
135	0x3c441143	0.011967006
136	0x3e362718	0.1778835
137	0x3ce8664b	0.02836909
138	0xbe385346	-0.18000516
139	0xbd785098	-0.060623735
140	0x3e66254b	0.22475164
141	0x3bafa1de	0.0053598722
142	0xbe232a6f	-0.15934156
143	0xbe0a1902	-0.13486102
144	0xbe55dc9e	-0.2088494
145	0xbd1fdd25	-0.03902926
146	0xbd16dfa4	-0.036834374
147	0x3e4cbd9c	0.19994205
148	0xbddc9ac2	-0.10771705
149	0xbde3add8	-0.111171424
150	0x3e022dcb	0.12712781
151	0x3d69f1e6	0.057115458
152	0xbe5e1a54	-0.21689731
153	0x3e2880b4	0.16455346
154	0xbcbdbd6b	-0.02316161
155	0x3e1ad73b	0.15121166
156	0xbe218648	-0.1577388
157	0x3ddfe249	0.10931832
158	0xbe534efe	-0.20635602
159	0xbe3df710	-0.18551278
160	0xbe23fe64	-0.16015011
161	0xbda60482	-0.081063285
162	0x3e3e9785	0.18612488
163	0x3d898d3e	0.06716393
164	0xbe141866	-0.14462432
165	0x3d56e2c1	0.052462343
166	0x3c69f6ea	0.01428006
167	0x3dd9bc63	0.10631635
168	0xbe28b6e0	-0.16476011
169	0x3dd2b87f	0.10289096
170	0x3e37900e	0.17926046
171	0x3e216bdf	0.15763806
172	0xbc558c02	-0.013033869
173	0xbdb2886d	-0.087174274
174	0xbd6b455a	-0.057439186
175	0xbc8b7378	-0.017022833
176	0xbe3ef4f4	-0.1864813
177	0x3d213d4d	0.0393651
178	0x3e31382d	0.17306586
179	0xbdeaab94	-0.11458507
180	0xbe1a2b72	-0.15055636
181	0xbdbf9556	-0.093546554
182	0x3e10abc0	0.14128017
183	0xbe3d4d96	-0.18486628
184	0xbda183ae	-0.07886444
185	0xbe4be89a	-0.19912949
186	0x3dba926c	0.09109959
187	0x3d88e4ca	0.06684263
188	0xbd9cfb0c	-0.07665071
189	0x3db4c5c5	0.08826784
190	0x3dca5c60	0.098809004
191	0x3de0ec27	0.109825425
192	0xbe3cb65a	-0.18428937
193	0xbe074b05	-0.13212211
194	0x3e26af31	0.16277768
195	0x3da21803	0.07914736
196	0x3dbbf594	0.091777
197	0x3e5b80fc	0.21435922
198	0xbe0273ed	-0.12739535
199	0xbd4b820e	-0.049684577
200	0xbcd91ae4	-0.02650208
201	0x3ca87342	0.020562772
202	0x3e63d4e2	0.22249177
203	0xbcd32072	-0.025772307
204	0xbe54b15f	-0.20770787
205	0xbc33c707	-0.010972745
206	0xbe29b084	-0.16571242
207	0xbe0cac10	-0.13737512
208	0xbe150ef2	-0.14556482
209	0x3d89820e	0.06714259
210	0xbd0b7c0b	-0.034053843
211	0xbe0d5222	-0.13800862
212	0x3d1e6832	0.038673587
213	0x3d2ae26f	0.04171985
214	0x3ccfea8e	0.0253804
215	0x3e8bb241	0.27284434
216	0xbd0cbea2	-0.03436149
217	0xbe382f77	-0.17986856
218	0xbdfde0c4	-0.12396386
219	0xbdea7961	-0.114489324
220	0x3dda9c0b	0.10674294
221	0xbe44f92d	-0.19235678
222	0xbe3a75fd	-0.18209071
223	0x3c78d8b8	0.0151883885
224	0xbcf6ad21	-0.030111851
225	0xbe3c0aa2	-0.18363431
226	0xbe54cd4c	-0.2078144
227	0x3e37b99a	0.17941895
228	0x3d848e30	0.064724326
229	0xbdb2bc85	-0.087273635
230	0x3cc48d7c	0.023993246
231	0xbde99d2a	-0.1140693
232	0xbe4813a1	-0.19538738
233	0x3dc3bcf2	0.09557523
234	0xbdf10dbf	-0.117702
235	0x3e112d09	0.14177336
236	0x3bca0b25	0.0061658793
237	0xbe52edf6	-0.20598587
238	0xbe2c3b80	-0.16819572
239	0x3e4fe441	0.20301916
240	0xbda8e311	-0.082464345
241	0xbc59bf93	-0.013290304
242	0xbcbc83fb	-0.023012152
243	0xbe1be40d	-0.15223713
244	0x3e4e65bc	0.20155996
245	0xbd31ef6d	-0.043441225
246	0x3c839a6b	0.016064843
247	0x3d442e67	0.047895815
248	0xbe942757	-0.28936264
249	0x3e01e43c	0.12684721
250	0xbd3a16ca	-0.04543189
251	0xbcef0342	-0.029176358
252	0xbd5b16df	-0.05348861
253	0x3d73e1f5	0.05954166
254	0x3d9ca777	0.07649129
255	0x3d94e5d2	0.07270397

dnn/hiddenlayer_1/MatMul f4 [64, 128]
0	0xbd87ae33	-0.06625023
1	0xbe1f9907	-0.15585719
2	0x3dcd72da	0.10031672
3	0xbe0bffbc	-0.13671774
4	0x3e233d1e	0.15941283
5	0x3e220814	0.15823394
6	0x3e19a642	0.15004829
7	0xbe128fc6	-0.14312658
8	0x3e236c22	0.15959218
9	0x3d621db2	0.0552041
10	0xbdb6213b	-0.08893057
11	0x3e1ce441	0.15321447
12	0x3e328c5a	0.17436352
13	0xbe036e1e	-0.12834975
14	0x3d855101	0.06509591
15	0x3c4acbb3	0.012377667
16	0x3bd037f2	0.0063543255
17	0x3c04161d	0.008061913
18	0x3e385917	0.18002735
19	0x3d2e20eb	0.04251186
20	0x3e1328eb	0.14371078
21	0x3cb22767	0.021747304
22	0x3db58743	0.0886369
23	0x3d08c269	0.03338853
24	0x3e51f952	0.20505264
25	0xbdd859d4	-0.10564008
26	0xbe1a9f57	-0.15099846
27	0x3c3e87e6	0.01162908
28	0xbc53582c	-0.01289944
29	0x3deb8583	0.11500075
30	0x3d5e3b07	0.05425551
31	0xba07838c	-0.00051694433
32	0x3c2dd605	0.010610108
33	0xbde347ff	-0.110977165
34	0x3df40035	0.11914102
35	0x3e07d2fd	0.1326408
36	0xbd2c3088	-0.04203847
37	0xbd33115c	-0.043717727
38	0x3d202c61	0.039104823
39	0xbdbdf412	-0.09275068
40	0x3d80e60e	0.062938794
41	0xbc4ad3e0	-0.0123796165
42	0xbe139e7f	-0.1441593
43	0x3c02c04c	0.007980417
44	0xbd16c3c2	-0.036807783
45	0x3e43b5c3	0.19112305
46	0xbddd21eb	-0.10797485
47	0xbd08a86c	-0.033363745
48	0x3e22d392	0.1590102
49	0x3dc3d057	0.09561222
50	0xbe1cfaf5	-0.15330108
51	0xbe1da8af	-0.15396379
52	0xbe19049f	-0.14943169
53	0xbd81c1ce	-0.063357934
54	0x3e5eeb0b	0.2176935
55	0xbdbe6aaa	-0.09297688
56	0x3e1bdda0	0.15221262
57	0xbd82f996	-0.06395261
58	0x3b09cd04	0.002102674
59	0x3e1e8924	0.15482002
60	0xbd1415ef	-0.03615373
61	0xba0f0841	-0.0005456247
62	0xbdaa9271	-0.08328713
63	0x3e0fd94a	0.14047733
64	0xbe23ce86	-0.15996751
65	0xbe5587fe	-0.20852658
66	0x3de28e5a	0.11062308
67	0xbd98b482	-0.07456304
68	0xbe010522	-0.12599614
69	0x3d7549a1	0.05988467
70	0x3e2349fe	0.15946195
71	0x3d450e3a	0.04810927
72	0x3df7bc39	0.120964475
73	0x3b5527d2	0.0032524955
74	0x3e090371	0.13380219
75	0xbde2054d	-0.11036167
76	0x3e0967ce	0.13418505
77	0x3cb766e1	0.022387924
78	0x3c3ad8e1	0.011404247
79	0x3e244ec2	0.16045669
80	0x3d41ae4d	0.047285367
81	0xbddf45ae	-0.10901962
82	0xbe077206	-0.1322709
83	0xbb3739f0	-0.0027958117
84	0xbd688707	-0.056769397
85	0xbe12278d	-0.142729
86	0xbdf43ac2	-0.1192527
87	0x3c2f1f00	0.010688543
88	0x3d9d0bac	0.07668242
89	0x3daff8b4	0.08592358
90	0xbdbe3f42	-0.09289409
91	0x3e1015b5	0.1407078
92	0xbe425e53	-0.18981294
93	0xbd914a98	-0.07094306
94	0xbd78294c	-0.06058626
95	0x3c0fba26	0.008772409
96	0x3d0e0033	0.03466816
97	0x3e057559	0.13033046
98	0x3d70462a	0.058660664
99	0x3d2a8d03	0.041638386
100	0x3d1953a8	0.037433296
101	0x3e1d587a	0.15365782
102	0x3d9f22e1	0.077703245
103	0xbd9b0e97	-0.07571142
104	0x3ba90b1c	0.005158795
105	0x3da0773c	0.07835242
106	0xbd894f55	-0.067045845
107	0x3ca9d09d	0.020729357
108	0x3de4e5f7	0.11176675
109	0x3dd78224	0.10522869
110	0xbdb4162e	-0.08793293
111	0xbcf5fce9	-0.030027824
112	0x3d4b722e	0.049669437
113	0x3dc1bf93	0.09460368
114	0x3d2d88ad	0.042366672
115	0x3e198435	0.14991839
116	0x3d0a54b8	0.0337722
117	0x3d56e79b	0.05246697
118	0x38d1cb24	0.000100037345
119	0xbd135df6	-0.03597828
120	0x3e1410e2	0.14459565
121	0xbd115d14	-0.035489157
122	0xbd74ed72	-0.059796758
123	0x3c02b7c6	0.007978385
124	0xbe2e02ee	-0.16993305
125	0xbc4d3cc4	-0.012526695
126	0xbdec4716	-0.11536996
127	0x3e2cb4df	0.16865872
128	0xbd03ea91	-0.03220612
129	0xbd359a35	-0.044336516
130	0x3e68d562	0.22737649
131	0xbd88fc48	-0.06688744
132	0x3d60f6fa	0.054923035
133	0x3e347d36	0.17625889
134	0x3dc625f8	0.09675211
135	0xbda6a969	-0.08137781
136	0xbdd317d7	-0.103072815
137	0xbcbab38b	-0.02279069
138	0x3e2de39a	0.16981354
139	0x3e12a8ee	0.14322254
140	0x3d95c89a	0.07313652
141	0x3e4ef2c1	0.20209791
142	0x3db21ee5	0.08697299
143	0x3dd5487b	0.10414215
144	0xbdea92ea	-0.11453803
145	0x3e022bd0	0.12712026
146	0xbdd596b8	-0.10429138
147	0x3da654b5	0.08121625
148	0x3d8433b9	0.06455178
149	0xbb9b3587	-0.0047366056
150	0x3de4581e	0.111496195
151	0x3e0141be	0.12622735
152	0xbd6c7453	-0.057728123
153	0x3e45f246	0.19330701
154	0xbd7674b6	-0.060169898
155	0xbdc64b9c	-0.0968239
156	0xbe262e70	-0.16228652
157	0x3df54ffe	0.11978148
158	0x3dbe0d69	0.092799015
159	0xbdbc2964	-0.09187582
160	0x3e134c7a	0.14384642
161	0xbd048831	-0.032356445
162	0xbda95324	-0.08267811
163	0xbdcbf45c	-0.09958717
164	0x3e058831	0.13040234
165	0x3d83ab95	0.06429211
166	0xbd96d26a	-0.07364352
167	0xbd9d4115	-0.07678429
168	0xbd7918e2	-0.060814746
169	0xbc95d6ec	-0.01829096
170	0xbe1cf637	-0.15328299
171	0x3dbe5967	0.09294396
172	0x3ca5e8a5	0.020252535
173	0x3e22184d	0.15829583
174	0x3afb9f18	0.0019197194
175	0x3e19f265	0.15033872
176	0xbc634f6b	-0.013873915
177	0x3d8061b5	0.06268636
178	0xbcb96c19	-0.022634553
179	0x3dbb6109	0.09149367
180	0x3e33aa7f	0.17545508
181	0x3e1e8dc8	0.15483773
182	0xbd924db5	-0.07143728
183	0x3d276d00	0.040875435
184	0x3dc0a6a8	0.09406787
185	0x3d479c24	0.04873289
186	0xbc2be54e	-0.010491682
187	0xbdb10c97	-0.086449794
188	0x3debc5d9	0.11512346
189	0x3d88bb70	0.06676376
190	0xbd9a94a1	-0.0754788
191	0x3e0e5934	0.13901216
192	0x3dae9241	0.085239895
193	0xbc6f9638	-0.014623217
194	0xbe1c5c45	-0.15269573
195	0x3b095741	0.0020956548
196	0x3d36224d	0.044466306
197	0x3da1f0e0	0.079072714
198	0x3e419a22	0.18906453
199	0x3e216a8d	0.15763302
200	0x3e0839cf	0.13303302
201	0xbe4aace1	-0.1979251
202	0x3de59517	0.11210077
203	0xbd90268f	-0.070386045
204	0x3d8df927	0.06932288
205	0x3dbde49c	0.092721194
206	0xbde0c804	-0.1097565
207	0x3c9135a5	0.017725775
208	0xbda3e92e	-0.0800346
209	0xbdfc0cc6	-0.12307124
210	0xbe103ed7	-0.14086471
211	0xbbbf3feb	-0.005836477
212	0xbda166b3	-0.078809164
213	0xbd8821d9	-0.06647081
214	0xbddeb020	-0.10873437
215	0xbe2d0a5a	-0.1689848
216	0xbb77f211	-0.0037833492
217	0x3d36a8cf	0.044594582
218	0xbd783098	-0.060593218
219	0x3dcaa0b0	0.0989393
220	0xbc43e558	-0.011956535
221	0xbe2cb737	-0.16866766
222	0xbd0f862a	-0.03504006
223	0xbddb1716	-0.10697763
224	0x3d407ed8	0.046995968
225	0xbd883530	-0.0665077
226	0xbd4d995d	-0.050195087
227	0xbdaab946	-0.08336119
228	0xbde15149	-0.11001832
229	0x3e10a4dc	0.14125389
230	0x3cb402f3	0.021974063
231	0xbe0489b0	-0.12943149
232	0x3d3ed2a8	0.046587616
233	0x3d80a4f7	0.062814645
234	0x3e106dbd	0.14104362
235	0x3e164c01	0.1467743
236	0x3b1f8bcd	0.0024344802
237	0xbd5eedec	-0.05442612
238	0x3d277d54	0.040891007
239	0xbdc2df1a	-0.095152095
240	0xbc2bef82	-0.010494115
241	0x3e45817b	0.19287674
242	0x3e291fe6	0.16516075
243	0xbd67250f	-0.056431826
244	0xbd33a787	-0.04386094
245	0xbd81d470	-0.06339347
246	0xbdaec8bd	-0.085343815
247	0x3e1e008a	0.15429893
248	0x3e20da52	0.15708283
249	0xbacfa9de	-0.0015843471
250	0xbd7e6d77	-0.062116113
251	0xbdcf5530	-0.1012367
252	0xbe2710fe	-0.16315076
253	0x3e0e6ed8	0.13909471
254	0x3e1bff51	0.15234114
255	0x3e29f4e0	0.16597319

dnn/logits/MatMul f4 [1, 64]
0	0x3eaabb26	0.33345908
1	0x3e85cd03	0.26132974
2	0xbe80393f	-0.25043675
3	0xbd87711a	-0.06613369
4	0xbeb128a7	-0.34601328
5	0x3ead288a	0.3381999
6	0xbdfb17c7	-0.122603945
7	0xbe2e51f5	-0.17023452
8	0x3eb55488	0.35416055
9	0x3e922385	0.28542724
10	0x3d919e9f	0.07110333
11	0x3edc4ded	0.43028203
12	0xbe981724	-0.29705155
13	0x3e1b9736	0.15194401
14	0x3e696419	0.2279209
15	0xbda29577	-0.079386644
16	0xbe44862c	-0.19191808
17	0x3e010114	0.12598068
18	0xbdef3d47	-0.116816096
19	0x3eae6354	0.34060156
20	0x3e0b2a4d	0.13590355
21	0xbe8bfd3b	-0.27341637
22	0x3d432637	0.047643866
23	0xbdbf75a3	-0.09348609
24	0xbe2823af	-0.16419862
25	0x3ec4266c	0.38310564
26	0x3df160ac	0.11786017
27	0x3e6b051e	0.22951171
28	0x3d5552a3	0.05208076
29	0x3e8002f7	0.25002262
30	0x3dd22951	0.10261787
31	0xbe6d94d8	-0.2320131
32	0xbe070975	-0.13187201
33	0x3ea94460	0.33059978
34	0x3ce2962b	0.027659496
35	0xbebe3963	-0.37153158
36	0x3e0757d0	0.13217092
37	0x3e126eb6	0.14300045
38	0x3e49874f	0.19680522
39	0xbe02d74c	-0.12777442
40	0x3d9cea08	0.076618254
41	0xbda3835c	-0.07984039
42	0x3d02dc3c	0.031948313
43	0xbe0e7dbe	-0.13915154
44	0xbe5a4021	-0.21313526
45	0xbe0040e2	-0.12524751
46	0xbc651915	-0.013983031
47	0x3ed974d5	0.42471948
48	0xbe916b22	-0.28402048
49	0x3e93e59f	0.28886124
50	0xbe472fe3	-0.19451861
51	0xbe80d3f1	-0.25161698
52	0xbe8f251f	-0.2795801
53	0x3dd1ce30	0.10244405
54	0x3e04be5e	0.12963244
55	0xbea2eff5	-0.31823698
56	0x3e30d827	0.17269956
57	0x3ee41607	0.44548056
58	0x3eb3eff7	0.35144016
59	0xbbb8c36d	-0.005638531
60	0xbe143951	-0.1447499
61	0x3da7052a	0.08155282
62	0xbd16f5f6	-0.03685566
63	0xbe41667f	-0.18886755
